…
a:0/task:0/device:GPU:0 with 21342 MB memory:  -> device: 0, name: NVIDIA GeForce RTX 3090, pci bus id: 0000:09:00.0, compute capability: 8.6\n2022-11-19 02:48:55.310982: I tensorflow/core/common_runtime/process_util.cc:146] Creating new thread pool with default inter op setting: 2. Tune using inter_op_parallelism_threads for best performance.\nModel: \"sequential\"\n_________________________________________________________________\n Layer (type)                Output Shape              Param #   \n=================================================================\n conv2d (Conv2D)             (None, 26, 26, 32)        320       \n                                                                 \n max_pooling2d (MaxPooling2D  (None, 13, 13, 32)       0         \n )                                                               \n                                                                 \n conv2d_1 (Conv2D)           (None, 11, 11, 64)        18496     \n                                                                 \n max_pooling2d_1 (MaxPooling  (None, 5, 5, 64)         0         \n 2D)                                                             \n                                                                 \n conv2d_2 (Conv2D)           (None, 3, 3, 64)          36928     \n                                                                 \n flatten (Flatten)           (None, 576)               0         \n                                                                 \n dense (Dense)               (None, 64)                36928     \n                                                                 \n dense_1 (Dense)             (None, 10)                650       \n                                                                 \n=================================================================\nTotal params: 93,322\nTrainable params: 93,322\nNon-trainable params: 0\n_________________________________________________________________\nNone\nEpoch 1/5\n2022-11-19 02:48:56.553880: I tensorflow/stream_executor/cuda/cuda_dnn.cc:384] Loaded cuDNN version 
…
